1000_episodes/dqn_model.pth (torch, 76380 bytes, 6 tensors)

fc1.weight f4 [128, 6]
0	0xbef92c23	-0.48666486
1	0x3df2e1fc	0.11859509
2	0x3dabaa18	0.08382052
3	0xbd84d242	-0.06485416
4	0x3e1d4239	0.15357293
5	0xbc28e788	-0.010309108
6	0xbd672d42	-0.056439646
7	0xbe6227c2	-0.22085479
8	0x3d8eae3c	0.06966826
9	0x3eca524d	0.39515916
10	0x3ea04785	0.31304565
11	0x3d54e361	0.051974658
12	0x3e05e87c	0.13076967
13	0xbe7ce0c1	-0.24695112
14	0xbe100d99	-0.14067687
15	0xbe70b23c	-0.23505491
16	0x3de95d85	0.113947906
17	0x3d8c2c84	0.06844428
18	0x3e8d5e45	0.27610984
19	0x3db11674	0.08646861
20	0x3e871b30	0.2638793
21	0xbe95c446	-0.29251307
22	0xbec0e5a5	-0.37675205
23	0xbe8927f0	-0.26788282
24	0xbe888b73	-0.2666889
25	0x3ebf7372	0.37392765
26	0xbe0228ef	-0.12710927
27	0xbd93abd2	-0.072105065
28	0xbe5e0fd9	-0.21685733
29	0xbebe7920	-0.37201786
30	0xbe2adba1	-0.16685344
31	0xbc3524c3	-0.011056128
32	0xbd922057	-0.071350746
33	0xbcaed86e	-0.021343436
34	0xbed442fa	-0.4145735
35	0x3e85bc94	0.26120436
36	0x3e4d1517	0.20027576
37	0xbce26a19	-0.027638482
38	0x3e989396	0.298001
39	0x3dc2ba66	0.09508209
40	0xbdf498d3	-0.119432114
41	0x3e594d39	0.21220864
42	0xbeceb1e1	-0.40370086
43	0x3e609001	0.21929933
44	0x3edc5799	0.43035582
45	0xbd9c2580	-0.0762434
46	0xbeac9eec	-0.33714998
47	0x3d59f4ac	0.053211853
48	0x3e810ff8	0.25207496
49	0xbe677218	-0.22602117
50	0x3ded034e	0.11572896
51	0x3da5b59c	0.0809128
52	0x3e328922	0.17435125
53	0x3e8c2913	0.27375087
54	0xbd0dd047	-0.034622457
55	0xbe5a3680	-0.21309853
56	0x3ac97ce1	0.00153723
57	0xbe148dfa	-0.14507285
58	0xbd81bd32	-0.06334914
59	0x3e1e1dcf	0.15441059
60	0x3e09f234	0.134713
61	0x3e820aa6	0.2539875
62	0x3e7cd9fc	0.2469253
63	0x3dece8d6	0.115678474
64	0xbdcb5bfb	-0.09929653
65	0xbdbc7bfa	-0.09203334
66	0xbed05a4d	-0.40693894
67	0xbdbe6244	-0.092960864
68	0x3ebdbd92	0.37058693
69	0xbe2df612	-0.169884
70	0xbe963a78	-0.29341483
71	0x3da09235	0.07840387
72	0xbe601129	-0.21881546
73	0xbe53dc33	-0.20689468
74	0xbe18e850	-0.1493237
75	0xbeb07b84	-0.34469235
76	0xbe6e00f7	-0.23242556
77	0xbcc733ff	-0.024316786
78	0x3e079f33	0.13244323
79	0x3ea8bfb0	0.32958746
80	0xbe7a3fda	-0.2443842
81	0x3df0d282	0.11758901
82	0x3c9472e0	0.018121183
83	0x3d28c35b	0.04120193
84	0x3e9246c4	0.28569615
85	0xbc43b57b	-0.011945124
86	0xbebcc4e7	-0.36868975
87	0x3e9e6e42	0.30943495
88	0xbe2ea0ca	-0.17053524
89	0xbda1bce3	-0.078973554
90	0x3ca280ba	0.019836772
91	0xbd9ae36b	-0.07562908
92	0x3dd2b4de	0.10288404
93	0xbdae7699	-0.085187145
94	0xbd7c25fb	-0.06155966
95	0x3c9a0b4e	0.018804219
96	0x3eb0eb35	0.3455445
97	0x3eb4823c	0.3525561
98	0x3d0050c0	0.03132701
99	0x3e3651c4	0.17804629
100	0x3c3df520	0.011594087
101	0xbe8de895	-0.27716509
102	0x3ec46a5e	0.38362402
103	0xbe8b487d	-0.27203742
104	0xbeafaf9e	-0.34313673
105	0x3e9a8140	0.30176735
106	0x3d0120ff	0.03152561
107	0xba1d75ac	-0.0006006609
108	0xbe8ef7d9	-0.27923468
109	0x3c1616d0	0.009160712
110	0x3ea3d173	0.31995735
111	0x3ea65d3d	0.3249301
112	0x3d3a5843	0.04549433
113	0x3e217307	0.15766536
114	0xbe5885a9	-0.21144737
115	0xbcd4cc0b	-0.025976202
116	0xbec9070c	-0.3926319
117	0x3ea0ed74	0.31431162
118	0x3db31d7b	0.08745857
119	0xbe7105bb	-0.23537342
120	0x3e64510a	0.22296539
121	0xbe7b0e32	-0.24517134
122	0xbeda5dcc	-0.42649686
123	0x3e959778	0.29217124
124	0xbdac9151	-0.084261544
125	0xbc034229	-0.008011379
126	0x3eaf7b99	0.34273985
127	0x3d31436e	0.043277197
128	0xbdb40ce7	-0.087915234
129	0xbec92a6c	-0.39290178
130	0xbe98730d	-0.29775277
131	0xbe588ca3	-0.21147399
132	0xbe421fa3	-0.18957381
133	0xbc54d139	-0.012989336
134	0xbe01b378	-0.12666118
135	0xbea19c50	-0.3156457
136	0xbe8d5cac	-0.27609766
137	0x3e78e7da	0.24307194
138	0xbeaecb43	-0.3413945
139	0x3eeb052e	0.4590239
140	0x3ec710b6	0.38879937
141	0xbe6c48e9	-0.23074688
142	0x3e9af393	0.30263957
143	0xbe6de935	-0.23233493
144	0xbc90f4ab	-0.017694792
145	0xbd7412c4	-0.05958821
146	0x3e8a570f	0.27019545
147	0x3e81247d	0.2522315
148	0xbd8be871	-0.06831444
149	0xbe129353	-0.14314012
150	0xbe48cba7	-0.19608937
151	0x3ea6b64e	0.32560962
152	0xbecc31dd	-0.39881793
153	0xbe3f4e55	-0.18682225
154	0xbda3eab4	-0.080037504
155	0x3d186726	0.037207745
156	0xbe0be2da	-0.13660756
157	0xbe73c8be	-0.23807046
158	0xbe96a5e0	-0.29423428
159	0x3d32a2f2	0.043612428
160	0x3e94a055	0.29028574
161	0x3e5f65b0	0.21816134
162	0xbc9a15c4	-0.018809207
163	0x3b06f0f3	0.0020590394
164	0x3d72dff4	0.05929561
165	0xbe15377b	-0.14571945
166	0x3de31ca6	0.11089449
167	0x3e96082f	0.2930312
168	0x3ea10cb0	0.31454992
169	0xbd129507	-0.035786655
170	0xbe03910f	-0.12848304
171	0xbea04481	-0.31302264
172	0xbe3f4042	-0.18676856
173	0xbe2b0455	-0.16700871
174	0xbe70156a	-0.23445669
175	0x3e72decd	0.23717804
176	0x3ddb5975	0.10710422
177	0xbe9a867a	-0.30180722
178	0xbea1fa70	-0.3163638
179	0x3e84476e	0.25835747
180	0x3e3156a0	0.17318201
181	0x3cd9899f	0.02655488
182	0x3e8d11ef	0.27552745
183	0xbe02d4ad	-0.12776442
184	0xbe0002be	-0.12501046
185	0x3e9bc1b6	0.30421227
186	0x3be8dd01	0.007106424
187	0x3e78cde2	0.24297288
188	0xbdc604b8	-0.09668869
189	0xbd88432f	-0.06653439
190	0xbd483698	-0.04888019
191	0xbe92068f	-0.2852063
192	0xbbafc589	-0.005364124
193	0x3e0627d6	0.13101134
194	0xbe4ac55f	-0.19801854
195	0x3dad43f9	0.084602304
196	0xbea757e0	-0.3268423
197	0x3e57232f	0.21009515
198	0xbe5f59a5	-0.2181154
199	0xbe1aade8	-0.15105402
200	0xbeb6b23e	-0.35682863
201	0xbe901115	-0.28138033
202	0x3ea0501d	0.31311122
203	0xbe648c11	-0.22319056
204	0xbec22bc6	-0.3792402
205	0x3e84278f	0.2581143
206	0xbe6c6fed	-0.23089571
207	0xbe9d8a0a	-0.30769378
208	0xbdc6f729	-0.09715111
209	0x3e7c6d36	0.24651036
210	0xbe3ef3a0	-0.18647623
211	0x3d9ae7c9	0.07563741
212	0x3d941941	0.07231379
213	0xbec31eef	-0.38109538
214	0xbeca1f99	-0.39477232
215	0xbd4868ab	-0.048927944
216	0xbeb1b412	-0.34707695
217	0xbd8707ec	-0.06593308
218	0x3eb0d3f1	0.34536698
219	0xbeaa2ab8	-0.33235717
220	0x3e13be6c	0.14428109
221	0xbeb2686e	-0.348453
222	0xbd2598df	-0.040428992
223	0xbed24e0a	-0.41075164
224	0x3ea59ccc	0.3234619
225	0xbe06be19	-0.13158454
226	0x3c0913cd	0.008366537
227	0x3d950321	0.072759874
228	0xbe8e994f	-0.2785134
229	0x3e91a0ef	0.28443095
230	0xbe80a8ca	-0.25128776
231	0xbdc47119	-0.09591884
232	0xbdf22697	-0.11823767
233	0xbe0a5db7	-0.13512312
234	0x3e0f66c9	0.14004053
235	0xbeb6856d	-0.3564867
236	0x3cf9342c	0.030420385
237	0x3e13d516	0.14436755
238	0xbe53832d	-0.20655508
239	0xbcd86900	-0.026417255
240	0x3e380e5a	0.17974225
241	0x3e1f733e	0.15571305
242	0xbd448cf8	-0.047986
243	0x3eb85d95	0.36008897
244	0xbb86dd41	-0.004115731
245	0xbeb3f79e	-0.35149854
246	0x3d6b7d72	0.05749268
247	0x3e020a4d	0.12699242
248	0xbe5612da	-0.20905629
249	0x3eaf0a95	0.3418776
250	0x3cc6b762	0.024257366
251	0xbe8319ed	-0.25605717
252	0xbec6bb97	-0.38814995
253	0x3decf1ab	0.11569532
254	0xbeae6a2f	-0.34065387
255	0xbe830e03	-0.25596628

fc1.bias f4 [128]
0	0x3e11011f	0.14160584
1	0xbdd222b3	-0.102605246
2	0x3dd987c1	0.10621596
3	0xbed2590f	-0.4108357
4	0xbe121c8a	-0.142687
5	0x3e5e5edf	0.21715878
6	0xbe7f9e64	-0.24962765
7	0x3e344b29	0.17606796
8	0xbe8a175f	-0.26970956
9	0x3daf8ee8	0.08572179
10	0xbddbdb4a	-0.107351854
11	0x3e490837	0.1963204
12	0x3e750b90	0.23930192
13	0xbb7e28af	-0.0038781574
14	0x3dd46655	0.10371081
15	0x3cb26ea1	0.021781268
16	0xbe8d0fda	-0.27551156
17	0xbcdb3b2e	-0.026761618
18	0xbce65a12	-0.02811912
19	0xbea8f06c	-0.32995927
20	0x3deaeedc	0.1147134
21	0xbd59b80c	-0.053154036
22	0x3e921a1c	0.28535545
23	0xbe2ab690	-0.16671205
24	0xbd665f96	-0.0562435
25	0x3e526a58	0.2054838
26	0x3d9e1a57	0.07719868
27	0xbd483f61	-0.048888568
28	0xbeba7790	-0.36419344
29	0xbe8ab2d6	-0.27089566
30	0xbde4ba59	-0.111683555
31	0x3ddd6ff2	0.108123675
32	0xbec782fb	-0.38967118
33	0x3d8f4cf6	0.06997101
34	0x3eac740d	0.3368229
35	0xbe9ef9a1	-0.31049827
36	0xbe9271f5	-0.28602567
37	0xbe1eb54d	-0.15498848
38	0xbe812835	-0.25225988
39	0x3e0fb807	0.14035045
40	0x3d005f70	0.031341016
41	0x3e1745c2	0.14772704
42	0x3ed565bb	0.41679177
43	0xbe5dd347	-0.21662627
44	0x3dfe3d49	0.12414033
45	0xbe7bea56	-0.24601111
46	0xbd43696a	-0.047707953
47	0x3dde7691	0.108624585
48	0xbd9cf04b	-0.0766302
49	0x3d36e265	0.0446495
50	0x3d98a892	0.07454027
51	0xbe5f1e61	-0.21788932
52	0xbe35c1ec	-0.17749757
53	0xb884fca5	-6.341309e-05
54	0x3dd5852e	0.10425793
55	0x3e3ad9b0	0.18247104
56	0xbece6711	-0.40313008
57	0x3e1bf4a7	0.15230046
58	0x3dc729a3	0.097247384
59	0x3d1b3c09	0.03789905
60	0xbeb6474e	-0.35601276
61	0xbe461823	-0.19345145
62	0xbdd18260	-0.10229945
63	0x3d97392a	0.0738395
64	0x3e11d000	0.14239502
65	0xbdb32dbc	-0.087489575
66	0x3e670e57	0.22564064
67	0xbb18f6e3	-0.0023340515
68	0xbdd3e7c8	-0.10346943
69	0x3c04f67c	0.008115407
70	0xbeaece89	-0.3414195
71	0x3dd4e92f	0.10396039
72	0xbe449c96	-0.19200358
73	0x3dd89875	0.10575954
74	0x3cccb989	0.024990814
75	0xbd86482f	-0.06556737
76	0xbe5955b9	-0.21224107
77	0xbd03bf3e	-0.032164805
78	0xbe9be7a6	-0.3045017
79	0xbe5291f1	-0.20563485
80	0x3e5edaa9	0.217631
81	0x3e044274	0.12915975
82	0xbe16a7cb	-0.14712445
83	0x3e068d96	0.13139948
84	0xbe00ecf3	-0.12590389
85	0x3ea6a6d0	0.32549143
86	0x3cdc29f0	0.026875466
87	0x3d4c8f93	0.04994161
88	0x3d058c26	0.03260436
89	0xbe341703	-0.17586903
90	0xbe25ca4f	-0.16190456
91	0x3e32151a	0.17390862
92	0xbec262fd	-0.37966147
93	0x3d6e3f51	0.058165852
94	0xbdd83482	-0.1055689
95	0xbd3f867a	-0.046759106
96	0xbceff37d	-0.029290909
97	0xbda6fbb3	-0.081534766
98	0x3d108bb3	0.035289478
99	0x3e86dead	0.26341763
100	0x3deff0ce	0.11715852
101	0xbdfa1a24	-0.12212017
102	0x3d9b83ad	0.075934745
103	0x3de30755	0.11085383
104	0xbdc3f803	-0.09568789
105	0xbd3bdcec	-0.045864984
106	0xbd938dae	-0.07204758
107	0x3e73f90d	0.23825474
108	0xbdc76d35	-0.097376265
109	0x3e6b8782	0.23000911
110	0xbebb7e9d	-0.36620036
111	0xbe09000a	-0.13378921
112	0x3e4e13f7	0.20124803
113	0x3e7d0777	0.24709879
114	0xbe384c6d	-0.17997904
115	0xbcc9b369	-0.024621682
116	0xbe5e2870	-0.21695113
117	0x3da44683	0.080212615
118	0x3dcef9b2	0.10106219
119	0x3e0765b2	0.13222387
120	0xbea61990	-0.32441378
121	0x3e585c18	0.21128881
122	0xbdf82228	-0.1211589
123	0x3e503c2d	0.20335455
124	0xbeb176d5	-0.34660974
125	0xbe59aa14	-0.21256286
126	0x3e36dafd	0.17856975
127	0x3e2d2d0c	0.16911715

fc2.weight f4 [128, 128]
0	0xbb6a9307	-0.0035793202
1	0xbd5ac60b	-0.053411525
2	0xbd19999e	-0.037500016
3	0x3d1609dd	0.0366305
4	0x3d9fe813	0.078079365
5	0x3d05b75b	0.032645565
6	0x3d45a3cd	0.048251916
7	0xbd2fb7d2	-0.042899914
8	0xbda13e07	-0.07873159
9	0xbd9e167d	-0.07719133
10	0x3d23a156	0.039948784
11	0x3cb80fb1	0.02246842
12	0xbd196454	-0.037449196
13	0xbdb689d0	-0.089130044
14	0x3d196b64	0.03745593
15	0xbbbdb9a3	-0.005789952
16	0xbd33792a	-0.043816723
17	0x3d54cdec	0.051954195
18	0x3d335709	0.043784175
19	0xbc31fa1e	-0.010862855
20	0xbdcd2b46	-0.100180194
21	0xbcaf6270	-0.021409243
22	0xbdd171f5	-0.10226814
23	0x3d9015a2	0.07035376
24	0xbd7d839c	-0.06189309
25	0xbc02fc28	-0.007994689
26	0xbd085c70	-0.03329128
27	0x3c3274e5	0.010892128
28	0xbc94e884	-0.018177278
29	0x3da1ddb5	0.079036154
30	0x3d615074	0.055008367
31	0xbd5c42c2	-0.053774603
32	0x3da149d1	0.078754075
33	0x3d7681ea	0.06018249
34	0xbac6f137	-0.0015178089
35	0xbd673feb	-0.05645744
36	0xbd592b13	-0.053019594
37	0x3d19d73d	0.037558783
38	0x3c4d660d	0.012536538
39	0xbd04b41e	-0.032398336
40	0xbd2805b3	-0.04102106
41	0xbc839da3	-0.016066378
42	0x3d09b4bc	0.033619627
43	0xbd2fe834	-0.042946056
44	0xbcb603ab	-0.022218546
45	0xbd25df5a	-0.040496208
46	0xbd22d8d0	-0.03975755
47	0x3d081019	0.033218477
48	0xbd467784	-0.048453823
49	0x3d5a184b	0.053245824
50	0xbcca2bec	-0.024679147
51	0xbda19b63	-0.07890966
52	0x3a896652	0.0010482764
53	0xbd2dd74d	-0.042441655
54	0xbda258e0	-0.07927108
55	0xbd0dd1e4	-0.034623995
56	0xbd875155	-0.0660731
57	0xbc803769	-0.015651422
58	0x3cbe0e5f	0.023200212
59	0x3cd87818	0.026424453
60	0xbd1174d4	-0.035511807
61	0x3ba7229d	0.005100562
62	0xbd79e6c0	-0.061011076
63	0xbd140360	-0.03613603
64	0xbe12090c	-0.14261264
65	0x3d5d6a30	0.054056346
66	0x3d6066c9	0.054785524
67	0x3dd2ee61	0.102993734
68	0xbd92071c	-0.07130262
69	0xba93ae9c	-0.0011267248
70	0x3d960a58	0.07326192
71	0xbb9a071d	-0.004700555
72	0x3d24d036	0.040237628
73	0x3d4a3750	0.049369156
74	0xbcc2c951	-0.023777636
75	0x3d7ac88d	0.061226416
76	0x3d4f20f5	0.05056854
77	0xbce20582	-0.027590517
78	0xbd9107a9	-0.07081539
79	0x3cc092dd	0.02350753
80	0x3d0a4eb7	0.033766475
81	0xbd261e12	-0.04055602
82	0xbccd3efc	-0.025054447
83	0xbda94a2d	-0.08266101
84	0x3c6fbc0f	0.014632239
85	0xbac14cfc	-0.0014747675
86	0xbd0c270f	-0.034216937
87	0x3d4105cc	0.04712467
88	0xbd95838f	-0.073004834
89	0x3d039be2	0.032131083
90	0xbc9b9251	-0.018990668
91	0xbd314da4	-0.043286934
92	0x3d3b6261	0.04574812
93	0xbdd6b223	-0.10483196
94	0xbd555c55	-0.052090008
95	0x3cb2745c	0.021784
96	0x3cff4a68	0.03116341
97	0xbda3a3fa	-0.079902604
98	0xbce82032	-0.028335664
99	0x3cd456be	0.025920268
100	0xbc145805	-0.009054189
101	0x3bf9c321	0.007622138
102	0x3d886c08	0.0666123
103	0x3c8604f7	0.01635979
104	0xbd2c1119	-0.042008493
105	0x3c43eb53	0.011957961
106	0x3c0db24d	0.008648467
107	0x3b702943	0.0036645688
108	0x3d6e0de0	0.0581187
109	0xbc7bde3e	-0.015372811
110	0xbcada527	-0.021196915
111	0xbd6e1a28	-0.058130413
112	0xbd49ab2f	-0.04923552
113	0x3c2ba733	0.010476875
114	0xbc8a9dd4	-0.016920961
115	0xbd9e5e00	-0.07732773
116	0xbc4a662d	-0.012353462
117	0x3da85983	0.08220198
118	0xbc4e0db6	-0.012576511
119	0xbd44eec3	-0.048079263
120	0x3cfe4cab	0.031042418
121	0x3c834675	0.016024807
122	0xbdbac555	-0.09119669
123	0xbd0878e6	-0.033318423
124	0xbd4db0a0	-0.05021727
125	0xbd9bfe59	-0.07616872
126	0xbd475f0a	-0.04867462
127	0x3cf1dced	0.029524291
128	0xbdea35c3	-0.114360355
129	0x3cf55b52	0.029950771
130	0xbd16d866	-0.036827467
131	0x3d1f557d	0.038899887
132	0x3db0d150	0.08633673
133	0xbd1189ea	-0.035531916
134	0xbcf8944f	-0.030344157
135	0xbdc8f2f0	-0.09811962
136	0x3d31d172	0.043412633
137	0xbd850fb9	-0.064971395
138	0x3cf26d2e	0.029593077
139	0xbc547cd6	-0.012969216
140	0x3d5d0114	0.053956106
141	0x3d5f3e89	0.054502998
142	0xbc8b730a	-0.017022628
143	0xbd301cd6	-0.04299625
144	0x3d54ecf5	0.051983792
145	0x3d04caab	0.03241984
146	0xbd07b12d	-0.033127952
147	0x3d883634	0.066509634
148	0xbd9a2fb0	-0.07528627
149	0xbd999033	-0.07498207
150	0xbd93a7fc	-0.07209775
151	0x3c6f11e6	0.01459167
152	0x3d37bd3c	0.044858202
153	0x3d088c12	0.033336706
154	0x3c9cc311	0.019135984
155	0x3d26e08e	0.040741496
156	0x3d3c37e1	0.045951728
157	0x3d9e406b	0.077271305
158	0xbc2c6394	-0.010521788
159	0xbda9ec91	-0.082970746
160	0x3d9f7a16	0.07786958
161	0x3cbec4b5	0.023287157
162	0xbd43e666	-0.047827147
163	0x3d7e77d3	0.062125992
164	0xbd45914b	-0.048234265
165	0xbdac336d	-0.08408246
166	0x3d83a8e1	0.064286955
167	0xbc963377	-0.018335087
168	0xbd107296	-0.035265528
169	0x3d483d6e	0.04888671
170	0xbd99b627	-0.07505446
171	0x3d6cf6b3	0.05785246
172	0xbd49b5b1	-0.04924554
173	0xbcee1c8f	-0.029066352
174	0xbd8f64d7	-0.070016555
175	0xbd830475	-0.063973345
176	0x3d058388	0.03259614
177	0x3d238063	0.03991736
178	0xbdec019d	-0.11523745
179	0xbd49be32	-0.04925365
180	0xbd6db1a4	-0.05803074
181	0x3d6194b1	0.055073444
182	0xbd8a3525	-0.06748418
183	0xbd85f405	-0.06540684
184	0x3cfe0069	0.031006055
185	0x3d06ce8b	0.03291182
186	0xbd9c54e9	-0.07633383
187	0x3d594710	0.053046286
188	0xbd0f2fb0	-0.034957588
189	0xbcf7357b	-0.030176869
190	0x3caa3e98	0.0207818
191	0x3d35176d	0.044211794
192	0x3c6f275f	0.014596789
193	0x3d0a71c5	0.033799905
194	0x3d29c43b	0.041446906
195	0x3c313485	0.010815744
196	0x3d33aba3	0.043864857
197	0x3be85455	0.0070901313
198	0x3cade06a	0.021225173
199	0xbd5a284b	-0.053261083
200	0x3d410c9e	0.047131173
201	0x3c858579	0.016298996
202	0xbc53ef67	-0.012935496
203	0x3cf758dd	0.03019374
204	0xbd1e33d0	-0.03862363
205	0xbc9b95de	-0.01899236
206	0x3cf66d26	0.030081343
207	0x3c389bbd	0.0112676
208	0x3d827f00	0.063718796
209	0xbd3176cf	-0.043326195
210	0xbd810dbb	-0.06301447
211	0xbdc3405d	-0.09533761
212	0x3d962243	0.07330754
213	0xbd72d013	-0.059280466
214	0xbd26ab4a	-0.040690698
215	0xbc9d1263	-0.019173807
216	0xbd0a23a5	-0.0337254
217	0x3ad4b3a3	0.0016227852
218	0xbd7ca800	-0.061683655
219	0xbcfe4a03	-0.03104115
220	0xbd9894ab	-0.07450231
221	0xbda0532a	-0.07828362
222	0xbc4033e4	-0.011731122
223	0xbcc7b8c5	-0.024380097
224	0x3d239f33	0.039946746
225	0x3d2eda28	0.04268852
226	0x3cd59963	0.026074117
227	0xbdbe692f	-0.09297406
228	0xbda503d1	-0.080573685
229	0x3d90f2bd	0.07077549
230	0xbd47bcfa	-0.048764206
231	0xbb1857f3	-0.0023245781
232	0xbd7826ee	-0.060584
233	0x3c88e07b	0.016708603
234	0xbc85397d	-0.016262764
235	0xbb3d49e4	-0.0028883154
236	0x3d1c9419	0.038227174
237	0xbc8a89e1	-0.016911449
238	0xbc6ddabb	-0.014517481
239	0x3cb6464f	0.022250323
240	0xbd3de625	-0.04636206
241	0x3cf79e3c	0.03022682
242	0x3bb962eb	0.005657544
243	0xbd12d6aa	-0.03584925
244	0xbc4c09e1	-0.012453527
245	0xbd1c884c	-0.03821592
246	0x3c30064c	0.010743689
247	0xbcb2c3f6	-0.021821957
248	0xbd4ca705	-0.04996397
249	0x3da0931d	0.0784056
250	0xbdca25d8	-0.09870499
251	0xbddeb143	-0.10873654
252	0x3da6d82c	0.081467
253	0x3c75eb9e	0.015009789
254	0x3d20b993	0.039239477
255	0xbd4be40f	-0.04977804

fc2.bias f4 [128]
0	0x3e46d1cd	0.1941597
1	0xbd175f2a	-0.03695599
2	0x3dd8296a	0.10554774
3	0x3e284421	0.16432239
4	0x3dfcfccc	0.12352905
5	0x3d9a395f	0.07530474
6	0x3e5ddd6b	0.21666496
7	0x3e553d25	0.20824106
8	0xbdd89fbb	-0.10577341
9	0x3d8b4ee2	0.06802155
10	0x3db11373	0.08646288
11	0xbdd9abbc	-0.10628459
12	0x3d9216d8	0.07133263
13	0xbcda7b71	-0.02667019
14	0x3e321e58	0.17394388
15	0x3ddcfb08	0.10790068
16	0x3deb2833	0.11482277
17	0x3dfd7e99	0.12377662
18	0x3dba046c	0.09082875
19	0x3d870d31	0.06594313
20	0xbdc058e4	-0.093919545
21	0x3e322415	0.17396577
22	0x3ca3d8fc	0.020000927
23	0x3cbc473a	0.022983182
24	0x3e1a48d4	0.15066844
25	0x3e418d09	0.18901457
26	0xbdb45330	-0.08804929
27	0x3e23d6b8	0.15999877
28	0x3d1a7276	0.037706815
29	0xbd01d154	-0.03169377
30	0x3e1ee9b7	0.15518843
31	0x3dc3018f	0.09521782
32	0x3e48dcc5	0.19615467
33	0xbcdf4b48	-0.027257577
34	0x3db082b3	0.08618679
35	0x3c1b2d4e	0.009471251
36	0x3e32d148	0.17462647
37	0x3e011a93	0.12607794
38	0x3e2ba557	0.16762291
39	0xbd14d3f6	-0.036334954
40	0x3e39265f	0.18081044
41	0x3d97d475	0.0741357
42	0xbd887d32	-0.06664504
43	0x3e2a2008	0.16613781
44	0x3dd4148c	0.103554815
45	0xbc236623	-0.009973082
46	0x3e33c2e7	0.17554818
47	0xbdb9edbd	-0.09078548
48	0x3cf0a248	0.029374257
49	0x3e0fad01	0.1403084
50	0x3e3076d5	0.17232831
51	0xbd3a0407	-0.045413997
52	0x3dfaa6a7	0.12238818
53	0x3cefbc62	0.029264633
54	0x3de02a35	0.1094555
55	0x3d828ea9	0.063748665
56	0x3df6eeee	0.12057291
57	0x3e13828f	0.14405273
58	0x3e0d0f77	0.1377543
59	0xbdd08e75	-0.101834215
60	0x3d8fcfd8	0.07022065
61	0xbd5d43e8	-0.05401984
62	0x3e257458	0.16157663
63	0x3e223718	0.15841329
64	0x3e4c8c8f	0.19975494
65	0xbd317ddb	-0.043332916
66	0xbd9aa633	-0.07551231
67	0xbd18eec2	-0.037337072
68	0x3dddf93b	0.108385526
69	0x3e3e7bf4	0.18601972
70	0x3cc5bde7	0.024138404
71	0x3e5683de	0.20948741
72	0x3d1393dc	0.03602968
73	0x3d556c4d	0.052105237
74	0x3e2404b8	0.16017425
75	0x3deaee00	0.11471176
76	0x3e14861d	0.14504285
77	0xbdb4e4a1	-0.0883267
78	0x3e497d7b	0.19676773
79	0x3d3ca479	0.04605529
80	0x3dfb44ba	0.12268968
81	0xbd2a6af8	-0.04160592
82	0x3e149a75	0.14512046
83	0x3d12c7bd	0.035835017
84	0x3deedbec	0.116630405
85	0x3dac282e	0.08406101
86	0x3db6d704	0.0892773
87	0x3e3570d0	0.17718816
88	0x3e368b7e	0.1782665
89	0x3ddf1be0	0.108939886
90	0xbd37e2ed	-0.044894148
91	0x3dafb8c6	0.085801646
92	0x3e01f388	0.12690556
93	0x3deee09d	0.11663935
94	0x3e00161f	0.12508439
95	0xbdc0077d	-0.09376428
96	0x3dbccfaf	0.092193
97	0xbd8c21f9	-0.06842417
98	0xbdc8970a	-0.097944334
99	0x3e50d6a6	0.20394382
100	0x3d1e369a	0.03862629
101	0x3e1cbda9	0.15306725
102	0x3e25221b	0.16126291
103	0xbd0fad96	-0.035077654
104	0xbc35307a	-0.011058921
105	0xbd9fb74a	-0.077986315
106	0x3e067072	0.13128832
107	0x3dea8174	0.114504725
108	0x3e1751e5	0.14777334
109	0x3e4a9590	0.19783616
110	0x3dfe66c5	0.124219455
111	0x3de3ddd6	0.11126296
112	0x3da11ab7	0.078664236
113	0x3e298144	0.16553217
114	0x3d2704ee	0.040776186
115	0x3dd842eb	0.105596386
116	0xbd9dbc6a	-0.07701953
117	0x3e092167	0.13391648
118	0x3e207020	0.15667772
119	0x3e25a8ec	0.1617772
120	0x3e15d0de	0.14630458
121	0x3e52e658	0.20595682
122	0xbb7518e9	-0.003739888
123	0x3e46087b	0.19339173
124	0x3e16418a	0.14673439
125	0x3de27920	0.11058259
126	0xbb2c2ccf	-0.0026271825
127	0x3e2e3260	0.17011404

fc3.weight f4 [8, 128]
0	0x3d80ea14	0.06294647
1	0x3cfb8f99	0.030708121
2	0x3d6dad7d	0.05802678
3	0x3d670ac9	0.05640677
4	0x3da085ef	0.07838046
5	0x3d7cfb6b	0.06176321
6	0x3da08d9d	0.078395106
7	0x3d8d7eb1	0.0690893
8	0x3cd4bea2	0.025969807
9	0x3d9f03f7	0.07764428
10	0x3d6f0e51	0.058363263
11	0xbb29603a	-0.002584471
12	0x3d6e7c63	0.058224093
13	0x3d27922a	0.040910877
14	0x3d892ba4	0.06697777
15	0x3d3fc363	0.046817195
16	0x3d456be4	0.048198596
17	0x3d6382a5	0.055544514
18	0x3d62e790	0.055396616
19	0x3d866399	0.065619655
20	0xbce30c33	-0.027715778
21	0x3d6ea847	0.05826595
22	0x3bd39081	0.006456435
23	0x3bdfb1c3	0.006826611
24	0x3d7652bf	0.060137507
25	0x3d8bc42e	0.06824528
26	0xbb5ad224	-0.0033389414
27	0x3d80a789	0.06281955
28	0x3b3b957c	0.0028623035
29	0xbd83c758	-0.06434506
30	0x3d6a2984	0.0571685
31	0x3d26bf1a	0.040709592
32	0x3d9a3025	0.07528714
33	0x3d4f3dcf	0.050596055
34	0x3d3167fd	0.04331206
35	0xbb3f04cf	-0.0029147153
36	0x3da4d33f	0.080481045
37	0x3d5d8c1c	0.054088697
38	0x3d72d33e	0.059283487
39	0xbd084c39	-0.033275817
40	0x3d7224c6	0.0591171
41	0x3d6ca682	0.05777598
42	0x3d02fa69	0.03197709
43	0x3d5b341e	0.0535165
44	0x3d6134af	0.054981884
45	0xbd76311e	-0.060105436
46	0x3d643ac3	0.055720102
47	0x39fc9728	0.00048177806
48	0x3da027ff	0.07820129
49	0x3d1d3996	0.038384996
50	0x3d838c1f	0.0642321
51	0x3d2b26ec	0.041785166
52	0x3d3201fb	0.04345892
53	0x3d44b2e8	0.04802218
54	0x3d7b479c	0.06134759
55	0x3d872bca	0.06600149
56	0x3d545b68	0.051844984
57	0x3d840439	0.06446118
58	0x3d7c310f	0.061570223
59	0x3da5f176	0.08102696
60	0x3d8f9a27	0.07011824
61	0xbcd71754	-0.02625624
62	0x3d23acb2	0.039959617
63	0x3d916b7c	0.07100579
64	0x3d93356a	0.07187922
65	0x3d0d8f2c	0.034560367
66	0x3a4e3085	0.00078655063
67	0xbd777703	-0.060416233
68	0x3d67a883	0.05655719
69	0x3d941f68	0.07232553
70	0x3d393c54	0.04522355
71	0x3d899198	0.06717223
72	0x3d6f28ff	0.058388706
73	0x3d7b61b0	0.06137246
74	0x3d72f682	0.05931712
75	0x3d3198cc	0.04335861
76	0x3d305ebd	0.0430591
77	0x3c9542db	0.018220356
78	0x3da343d1	0.07971919
79	0xbafc2ee4	-0.0019240049
80	0x3d96c7c6	0.073623225
81	0xbd163983	-0.03667594
82	0x3d805f11	0.062681325
83	0x3d93b704	0.07212642
84	0x3d57ba51	0.05266792
85	0x3d7956bf	0.060873743
86	0x3c11194c	0.008856129
87	0x3d8d6428	0.06903869
88	0x3d8954a6	0.067055985
89	0x3d8900fa	0.066896394
90	0xbd3c1588	-0.04591897
91	0x3e08c5be	0.13356683
92	0x3d90c9a5	0.07069711
93	0x3d528250	0.051393807
94	0x3d5f674c	0.05454187
95	0x3d8c2524	0.068430215
96	0x3d22e3f6	0.03976818
97	0xbd7b09e5	-0.061288733
98	0xbbf9fe2b	-0.007629176
99	0x3d836c6e	0.06417166
100	0x3e879332	0.2647949
101	0x3d948ab7	0.0725302
102	0x3d4a7f7a	0.049437977
103	0xbd1a95ac	-0.037740394
104	0xbcb1051b	-0.02160888
105	0xbd80e07b	-0.06292816
106	0x3d49b677	0.049246278
107	0x3d3c5185	0.04597618
108	0x3d8d25fd	0.06892011
109	0x3d95b185	0.0730925
110	0x3d6d5144	0.05793883
111	0x3db963c1	0.0905223
112	0x3d6a747c	0.057239994
113	0x3dafab86	0.085776374
114	0x3ad9bd47	0.0016612195
115	0x3d3f67cc	0.046729848
116	0xbcae894c	-0.021305703
117	0x3da6638d	0.081244566
118	0x3d95f914	0.073228985
119	0x3d7451aa	0.059648193
120	0x3d169053	0.036758732
121	0x3d9266bb	0.071485005
122	0x3d4f5213	0.05061538
123	0x3d8bb552	0.068216935
124	0x3d680e69	0.056654368
125	0x3d681d94	0.056668833
126	0xbca6aa68	-0.020344928
127	0x3d75bdad	0.059995342
128	0x3d85236c	0.06500897
129	0xbd848c5f	-0.06472086
130	0x3d4b18cb	0.04958419
131	0x3d9c1721	0.07621599
132	0x3db6c3ed	0.089240886
133	0x3d86aace	0.06575547
134	0x3da00207	0.07812887
135	0x3d85994f	0.06523382
136	0x3d80796b	0.06273159
137	0x3d68a11e	0.05679428
138	0x3d3ad126	0.045609616
139	0xbd8da0c2	-0.06915428
140	0x3d9f4ac4	0.07777932
141	0x3dbb198d	0.09135733
142	0x3db0b7cd	0.08628807
143	0x3d72e9d3	0.059305023
144	0x3d84ad59	0.06478376
145	0x3d9b27e0	0.07575965
146	0x3d6d0897	0.05786952
147	0x3d8578df	0.06517195
148	0x3bd1391a	0.006384981
149	0x3da53943	0.080675624
150	0xbd732751	-0.059363667
151	0x3d9b121d	0.07571814
152	0x3d7486ff	0.059699055
153	0x3d903a42	0.07042362
154	0x3d7c0c4f	0.061535176
155	0x3d8eeef6	0.06979172
156	0x3d49b1a5	0.04924168
157	0xbd5d6c9b	-0.054058652
158	0x3d912be3	0.07088449
159	0x3d839961	0.06425739
160	0x3dbe8c1b	0.09304067
161	0x3c220dcc	0.009890985
162	0x3d3a0ab7	0.045420375
163	0xbd1e4a09	-0.038644824
164	0x3d947c25	0.07250241
165	0x3d684ba7	0.056712773
166	0x3d776ef9	0.060408566
167	0xbcee73d5	-0.029107967
168	0x3d8cecd3	0.06881108
169	0x3d4c7add	0.04992186
170	0x3d159a4c	0.036524102
171	0x3d8ef6db	0.06980678
172	0x3d4fb9c3	0.050714266
173	0xbd0ffc8a	-0.03515295
174	0x3d73f9b4	0.059564307
175	0x3d4e3f6e	0.05035346
176	0x3da00e07	0.078151755
177	0x3d6a2839	0.057167266
178	0x3d8745a2	0.06605078
179	0xbd12f625	-0.035879273
180	0x3d7c9489	0.06166509
181	0x3d589782	0.052878864
182	0x3d797e86	0.060911678
183	0x3d6da28e	0.058016352
184	0x3d82318b	0.06357106
185	0x3da3d89c	0.08000299
186	0x3d62c1d6	0.055360638
187	0xbc40ea0c	-0.011774551
188	0x3d855ad2	0.06511463
189	0xbbc9f30e	-0.0061630076
190	0x3d44e69e	0.048071496
191	0x3da6fdf9	0.0815391
192	0x3d974b47	0.07387405
193	0x3d91ffc5	0.07128862
194	0xbd3a8b6a	-0.04554311
195	0xbcddbfbf	-0.02706897
196	0x3d81f82d	0.06346164
197	0x3d8add1d	0.06780455
198	0x3d516707	0.051123645
199	0x3dc7aaa3	0.09749343
200	0x3d7847e3	0.06061543
201	0x3d3c6b28	0.04600063
202	0x3d712c79	0.058880303
203	0x3d5876d0	0.052847683
204	0x3d79a99c	0.060952768
205	0xbd2a50a2	-0.041580804
206	0x3dae78d3	0.08519139
207	0x3d37ea4b	0.044901174
208	0x3d779db3	0.060453128
209	0xbd077316	-0.03306874
210	0x3d919e37	0.07110255
211	0x3d4d2ce6	0.050091647
212	0x3d52d2dc	0.051470622
213	0x3d8f28ed	0.06990228
214	0x3d3dfe83	0.0463853
215	0x3dcb1f17	0.09918039
216	0x3dc4da6a	0.09611972
217	0x3d694db7	0.05695888
218	0xbda21de1	-0.07915855
219	0x3e11c958	0.14236963
220	0x3d8822c3	0.06647255
221	0x3d890d9b	0.06692048
222	0x3d9a4ead	0.075345375
223	0x3d3c3d51	0.045956913
224	0x3d4b3f13	0.0496207
225	0x3ce02f9e	0.027366456
226	0x3d872eb2	0.06600703
227	0x3da19a8b	0.07890805
228	0x3e3d5d1d	0.18492551
229	0x3d90cf1f	0.07070755
230	0x3d753f12	0.0598746
231	0xbd57b7ca	-0.05266551
232	0xbcea228c	-0.028580926
233	0xbc9dae79	-0.019248234
234	0x3d908b60	0.07057834
235	0x3d39af2e	0.04533308
236	0x3d90246e	0.070381984
237	0x3d867829	0.065658875
238	0x3d5bc206	0.053651832
239	0x3d846d84	0.06466201
240	0x3d8567dc	0.0651395
241	0x3d906473	0.07050409
242	0x3d13cebc	0.03608583
243	0x3d666ed3	0.056258034
244	0x3d45e600	0.04831505
245	0x3da79765	0.08183173
246	0x3d9b3e69	0.07580263
247	0x3d838a57	0.064228706
248	0x3d560ccd	0.0522583
249	0x3dbf2ad7	0.09334343
250	0x3dedb825	0.116073884
251	0x3dca6feb	0.09884628
252	0x3d64648a	0.055759944
253	0x3d8170b7	0.06320327
254	0xbd80de59	-0.062924094
255	0x3d9e2bcf	0.077231996

fc3.bias f4 [8]
0	0x3ed07910	0.40717363
1	0x3eac79a8	0.33686566
2	0x3eb615d6	0.35563534
3	0x3eea5bb0	0.45773077
4	0x3ec97064	0.3934356
5	0x3edbdc9d	0.42941752
6	0x3ed967fc	0.42462146
7	0x3ed37902	0.4130326
