dqn_model.pth (torch, 41348 bytes, 6 tensors)

fc1.weight f4 [128, 6]
0	0x3e9c30c1	0.30505946
1	0xbf83059f	-1.023609
2	0x3ee22738	0.44170547
3	0xbeca7ea6	-0.3954975
4	0xbd24a848	-0.040199548
5	0x3fa66f5c	1.3002734
6	0x3dc49f42	0.096006885
7	0x3ed90daf	0.42393252
8	0x3e1c7d0d	0.15282078
9	0xbfc5a98c	-1.5442367
10	0xbf11f39d	-0.5701235
11	0x3f4305ac	0.7618053
12	0xbf0ba068	-0.54541636
13	0x3e620632	0.22072676
14	0x3de3786a	0.111069515
15	0xbeccb3cb	-0.3998092
16	0xbe3fb098	-0.18719709
17	0x3fb22216	1.3916652
18	0xbe727d45	-0.23680599
19	0x3b579a5b	0.00328984
20	0xbea71cbc	-0.3263911
21	0x3ecf6a48	0.40510774
22	0xbe6a1931	-0.22861172
23	0x3e3f6c7e	0.1869373
24	0x3eb90f3a	0.3614443
25	0xbd9fdc92	-0.07805742
26	0xbe98744a	-0.29776222
27	0x3e16eeca	0.14739528
28	0xbdf31e4c	-0.11871013
29	0x3e7d99e1	0.24765731
30	0xbf75c57a	-0.9600445
31	0xbe31c4cf	-0.17360233
32	0x3f845586	1.03386
33	0x3d66ab7e	0.05631589
34	0xbd91fccf	-0.071282975
35	0x3d19f7b4	0.037589744
36	0xbe8c3987	-0.2738764
37	0xbdb83bd3	-0.089957856
38	0xbf1c08c0	-0.6095085
39	0xbf83966f	-1.0280284
40	0xbe46eaf2	-0.19425562
41	0x3f861b2e	1.0477045
42	0xbe9856b1	-0.2975364
43	0xbe70253f	-0.23451708
44	0x3e386c28	0.18010008
45	0x3d453a77	0.04815146
46	0x3c00a220	0.007851154
47	0xbe440e82	-0.1914616
48	0xbf229c9d	-0.6352022
49	0x3f4919bd	0.785549
50	0x3f02758b	0.50960606
51	0xbf8773b8	-1.058219
52	0xbc6d796b	-0.01449428
53	0x3e313c39	0.1730813
54	0x3e108fdd	0.1411738
55	0x3e3376af	0.17525743
56	0xbe837a8c	-0.25679433
57	0xbdf9eb2b	-0.12203058
58	0xbe2874ac	-0.16450757
59	0x3d1ea16e	0.03872817
60	0xbebddb7f	-0.37081525
61	0x3f543ed4	0.8290837
62	0x3eb3cce1	0.35117248
63	0xbf998494	-1.1993585
64	0xbeb5c2cb	-0.35500178
65	0xbbb3b192	-0.0054838145
66	0xbf1830b3	-0.5944931
67	0x3d91a6fc	0.07111928
68	0xbe6ffa73	-0.23435383
69	0xbf2083f7	-0.6270136
70	0xbe84d0b6	-0.25940484
71	0x3f2d39b0	0.6766615
72	0xbec89bd6	-0.39181393
73	0xbe9c04de	-0.30472463
74	0xbeb1dbe5	-0.3473808
75	0x3e67e15a	0.22644559
76	0xbbd96624	-0.0066344906
77	0xbe246c3a	-0.1605691
78	0x3cd3c03b	0.025848499
79	0xbf6b3137	-0.9187197
80	0x3f1eab74	0.61980367
81	0xbec295a7	-0.380048
82	0xbe384a83	-0.17997174
83	0x3f7464e9	0.95466477
84	0xbedcc4a6	-0.4311878
85	0x3e999cf4	0.30002558
86	0xbebaa753	-0.36455783
87	0xbe9989d1	-0.29987958
88	0x3c2c79e4	0.010527108
89	0x3ca8969b	0.020579627
90	0x3c9fba0d	0.019497896
91	0xbd7060c2	-0.058686025
92	0xbecbe667	-0.3982422
93	0xbe2b6fd9	-0.16741885
94	0xbec0e287	-0.37672827
95	0xbe639881	-0.22226144
96	0xbf5b4890	-0.85657597
97	0xbe828961	-0.25495437
98	0x3f5be818	0.8590102
99	0x3e848a1c	0.2588662
100	0x3b1abb6c	0.0023610247
101	0x39a6175e	0.00031679397
102	0x3e685b28	0.22691023
103	0x3f81ef59	1.0151168
104	0xbe880ea5	-0.26573673
105	0xbf84fac3	-1.0389026
106	0xbba4bb19	-0.0050271866
107	0xbd1d2cf7	-0.03837296
108	0xbe3f71d0	-0.1869576
109	0x3eb5e61f	0.3552713
110	0xbe65871a	-0.22414818
111	0xbe903ef7	-0.28173038
112	0xbe968ea2	-0.29405695
113	0x3dbbe91f	0.09175324
114	0xbcc5d79d	-0.024150664
115	0x3d31bbe3	0.043392073
116	0xbe519d26	-0.20470104
117	0xbf29e6fd	-0.66368085
118	0xbeb4d315	-0.35317293
119	0x3f722ef2	0.9460288
120	0xbe67e363	-0.22645335
121	0x3e0655ad	0.1311862
122	0xbe252ada	-0.16129628
123	0xbd03ea33	-0.03220577
124	0x3dfda6b3	0.12385311
125	0xbea2e121	-0.31812385
126	0x3ef2dea0	0.47435474
127	0x3cbdd3fd	0.023172373
128	0xbebef06b	-0.372928
129	0xbf83e9f3	-1.0305771
130	0x3aab6883	0.0013077412
131	0x3f708f44	0.93968606
132	0xbd33d319	-0.04390249
133	0x3e92822c	0.28614938
134	0xbec785ae	-0.38969177
135	0xbd710aa1	-0.058848027
136	0x3ec2173f	0.3790836
137	0xbe5dc089	-0.21655478
138	0xbd83e9d1	-0.06441081
139	0xbe73d6bc	-0.23812383
140	0xbddf0467	-0.108895116
141	0x3dbfc189	0.09363086
142	0xbd055af3	-0.03255744
143	0xbe842b4b	-0.2581428
144	0xbedeb89a	-0.43500215
145	0x3ea138d5	0.31488672
146	0x3dca7d52	0.09887184
147	0xbe965588	-0.2936213
148	0xbecab27c	-0.39589298
149	0xbe861973	-0.2619129
150	0xbf17ba06	-0.59268224
151	0x3e526924	0.2054792
152	0xbe68e5a1	-0.22743846
153	0x3e8e69c5	0.2781507
154	0xbec2688c	-0.37970388
155	0xbd5f9d2f	-0.05459326
156	0xbe857161	-0.26063064
157	0x3f148f55	0.5803121
158	0x3e343841	0.17599584
159	0xbfe1d012	-1.7641623
160	0xbf195572	-0.59896004
161	0xbc9cb9e6	-0.019131612
162	0xbd9300c6	-0.07177882
163	0x3c43d23f	0.011951982
164	0x3ea0e2dc	0.3142308
165	0x3eb5145a	0.3536709
166	0xbe62e0c6	-0.22156057
167	0xbe46e4ed	-0.19423266
168	0xbf80da4c	-1.0066619
169	0x3eb687b8	0.3565042
170	0x3f7e88a8	0.9942727
171	0xbeb652f2	-0.35610157
172	0x3bbfd3bc	0.005854098
173	0x3c509e20	0.012733012
174	0x3c3273cd	0.010891867
175	0xbe369f45	-0.17834194
176	0xbd4254e2	-0.04744423
177	0x3dcb0666	0.0991333
178	0x3cb6f7a8	0.022334889
179	0xbea35fd9	-0.31909063
180	0xbca7d7c0	-0.02048862
181	0x3c507dcb	0.012725304
182	0xbf11e574	-0.5699074
183	0xbf803bf3	-1.0018295
184	0x3dc27e93	0.09496798
185	0x3fd23f18	1.6425505
186	0xbe4c9ac2	-0.1998091
187	0xbd3845eb	-0.044988554
188	0x3e0d9599	0.13826598
189	0xbebde1fb	-0.37086472
190	0x3e65c13b	0.22436993
191	0x3c6d1369	0.01446996
192	0xbf3c6d03	-0.7360384
193	0xbc698756	-0.014253458
194	0x3d86005d	0.06543038
195	0xbdba39ce	-0.090930566
196	0xbe5d9293	-0.21637945
197	0xbcaf13ad	-0.021371687
198	0x3e221fd3	0.15832452
199	0x3e51222b	0.2042319
200	0xbeadacf5	-0.33921018
201	0x3d7ba07b	0.061432343
202	0x3d5f3ca4	0.05450119
203	0xbe094b9d	-0.1340775
204	0xbe5167fb	-0.20449822
205	0xbd577d43	-0.052609693
206	0xbe8312e3	-0.25600347
207	0xbf889730	-1.0671139
208	0xbdff973a	-0.12480016
209	0x3f7a5bcd	0.97796327
210	0xbec9908a	-0.39368087
211	0xbdeb6d4a	-0.114954546
212	0xbc73f8e3	-0.014890882
213	0x3ec4c28d	0.3842968
214	0xbe86947d	-0.26285163
215	0x3e9567b5	0.29180685
216	0xbe97c14e	-0.29639667
217	0xbd615b8f	-0.055018958
218	0x3b206188	0.0024472196
219	0x3e67e032	0.22644117
220	0xbdfaad6b	-0.12240108
221	0xbe95f876	-0.29291123
222	0xbe769720	-0.24081087
223	0xbe4a3ecd	-0.19750519
224	0xbecc4869	-0.39898995
225	0xbdbbd481	-0.09171391
226	0xbed8e036	-0.4235856
227	0xbe863a01	-0.26216128
228	0xbeae1f4e	-0.3400826
229	0xbe1f9cbe	-0.15587136
230	0xbe0db88a	-0.13839927
231	0xbf9cc623	-1.2247967
232	0x3d410ab0	0.047129333
233	0x3f88ad15	1.067782
234	0xbf79a371	-0.97515017
235	0x3eb72c01	0.3577576
236	0x3eb2518c	0.3482784
237	0xbf5bda4d	-0.85879976
238	0xbe2b28e2	-0.16714814
239	0xbe5a1c25	-0.21299799
240	0xbe99deb1	-0.30052713
241	0xbe910746	-0.28325862
242	0x3eb2945a	0.34878808
243	0xbdb2169f	-0.08695721
244	0xbd1d4b85	-0.0384021
245	0x3d9054be	0.07047413
246	0xbead6f41	-0.33873942
247	0xbe98f23d	-0.29872313
248	0xbc960905	-0.018314848
249	0x3ebc47ea	0.36773616
250	0xbe8cd4c7	-0.27506086
251	0xbeb91307	-0.3614733
252	0xbe18e984	-0.14932829
253	0xbf265eee	-0.649886
254	0xbeaaa98c	-0.3333248
255	0xbdea44d8	-0.11438912

fc1.bias f4 [128]
0	0xbefb2826	-0.49054068
1	0xbe234823	-0.15945487
2	0xbe6ce51f	-0.23134278
3	0xbeb54de9	-0.35411003
4	0xbebeab7a	-0.372402
5	0xbd2cc9ca	-0.04218463
6	0xbe24af63	-0.1608253
7	0xbeb613b5	-0.3556191
8	0xbd05a9b3	-0.03263254
9	0xbdd383d6	-0.1032788
10	0x3b4c3504	0.003115953
11	0x3c51c84b	0.012804101
12	0x3e0cf2e2	0.13764527
13	0xbea89a8b	-0.32930407
14	0x3e74dbf9	0.23912038
15	0xbcf6f88e	-0.030147817
16	0x3c9fdaf7	0.01951359
17	0xbcf8140f	-0.030283002
18	0xbdbc64a5	-0.09198884
19	0xbec3babf	-0.38228413
20	0xbe03c7a6	-0.12869129
21	0xbef4bc14	-0.47799742
22	0xbea52d42	-0.3226109
23	0xbec13e59	-0.3774288
24	0xbd881f1e	-0.0664656
25	0x3d6900ce	0.056885533
26	0x3c073900	0.008253336
27	0xbeb8ee90	-0.3611951
28	0x3cb53ac0	0.02212274
29	0xbecb7fc8	-0.39745927
30	0xbe1adea3	-0.15123992
31	0xbed31750	-0.41228724
32	0x3e17e81d	0.14834638
33	0xbe830e99	-0.25597075
34	0x3dd66c3f	0.10469865
35	0xbe592c0c	-0.21208209
36	0xbe6735e1	-0.22579147
37	0x3dbf790b	0.09349259
38	0xbd403d0a	-0.04693321
39	0x3e34ca06	0.17655191
40	0xbea6da72	-0.32588536
41	0xbec42fa7	-0.38317606
42	0xbe04e9b1	-0.12979771
43	0xbe087b5c	-0.13328308
44	0xbdd1dfbf	-0.10247754
45	0x3c66d013	0.014087695
46	0x3cc267b4	0.02373109
47	0xbde62b72	-0.11238755
48	0xbe8d4796	-0.27593678
49	0xbd9e5d40	-0.0773263
50	0xbe1bbcfe	-0.15208814
51	0xbe0d86dd	-0.13820978
52	0xbeb8bc26	-0.36081046
53	0x3ce8a8b9	0.028400766
54	0xbe82b103	-0.25525674
55	0x3cf555e7	0.029948188
56	0xbdb53f9c	-0.08850023
57	0xbe4cb9b5	-0.19992717
58	0xbe534109	-0.20630278
59	0x3ce07274	0.027398326
60	0xbee1f01e	-0.44128507
61	0xbe13f033	-0.14447097
62	0xbea565aa	-0.32304126
63	0xbda212b3	-0.07913723
64	0xbe8fadbc	-0.28062236
65	0x3ca06fc2	0.01958454
66	0xbe393f56	-0.18090567
67	0xbe471866	-0.19442901
68	0xbe7979d1	-0.24362876
69	0xbe37976d	-0.17928858
70	0xbeb4ddcd	-0.3532547
71	0xbe8096af	-0.25114962
72	0xbeab6791	-0.33477452
73	0xbec56d73	-0.38560066
74	0xbdb7d7cf	-0.08976709
75	0xbd4f7546	-0.05064895
76	0xbe9fb1fe	-0.31190485
77	0xbd64a656	-0.055822693
78	0xbe34b8a2	-0.17648557
79	0xbdc54f94	-0.09634319
80	0xbd445513	-0.047932696
81	0xbe3681d1	-0.17822959
82	0xbe48330a	-0.1955072
83	0xbd96b05e	-0.07357858
84	0xbd012577	-0.03152987
85	0xbebccbe3	-0.36874303
86	0xbe1d6682	-0.15371135
87	0x3d0aff20	0.033934712
88	0xbe47eee2	-0.1952472
89	0xbdb2cb24	-0.08730152
90	0xbe39e0e9	-0.18152203
91	0xbe9d16c7	-0.3068144
92	0x3d5dc197	0.0541397
93	0xbbc793bb	-0.006090609
94	0xbe9fe6a9	-0.31230667
95	0xbe93d1aa	-0.28870898
96	0xbe043146	-0.12909421
97	0xbd84dd26	-0.06487493
98	0xbec75277	-0.38930103
99	0xbe2ee0db	-0.17077963
100	0xbe3c1c7c	-0.18370241
101	0xbea50e3c	-0.32237422
102	0xbe1527fa	-0.14566031
103	0x3c0b6840	0.008508742
104	0xbe290c71	-0.16508652
105	0xbdd432f8	-0.10361284
106	0xbe579030	-0.21051097
107	0x3ebd0585	0.36918274
108	0xbe8a73fe	-0.2704162
109	0xbe07a7d4	-0.13247615
110	0xbea26017	-0.31713936
111	0x3d786258	0.060640663
112	0x3dc9fb07	0.09862333
113	0xbd52048b	-0.051273864
114	0xbecbe486	-0.39822787
115	0xbd92b42a	-0.0716327
116	0xbc9438c1	-0.018093469
117	0xbdc40741	-0.09571696
118	0xbe2a8093	-0.1665061
119	0xbf01f71e	-0.50767696
120	0xbdf1a637	-0.11799281
121	0xbe5d7e2a	-0.21630159
122	0xbed228fa	-0.41046888
123	0xbee3e39c	-0.4450959
124	0xbe909250	-0.28236628
125	0xbe56e317	-0.20985065
126	0xbeb82c70	-0.35971403
127	0xbeeca9fa	-0.46223432

fc2.weight f4 [64, 128]
0	0xbce83dd0	-0.028349787
1	0xbe8cb5fb	-0.2748259
2	0xbf69b4f3	-0.9129173
3	0x3c47704a	0.012172768
4	0x3d74fe18	0.059812635
5	0xbdd89b1f	-0.10576462
6	0xbf5a0f90	-0.85179996
7	0x3c992978	0.018696532
8	0xbe930f88	-0.28722787
9	0x3be3e89e	0.0069552204
10	0xbe70cdd5	-0.23516019
11	0xbe7dd2e7	-0.24787484
12	0x3d918387	0.07105165
13	0xbd08d859	-0.03340945
14	0xbd8cde28	-0.068783104
15	0xbe06ad1a	-0.1315197
16	0x3c5f948e	0.013646258
17	0xbdc9bd73	-0.09850588
18	0xbc0d37a1	-0.00861922
19	0xbf3c7704	-0.73619103
20	0x3ca19948	0.01972641
21	0xbecb0cdb	-0.39658245
22	0x3c19ae18	0.009379886
23	0xbcc849e7	-0.024449302
24	0xbe1da088	-0.15393269
25	0xbe20c915	-0.15701707
26	0xbf8de39a	-1.1085083
27	0xbd389754	-0.045066193
28	0xbd2ef046	-0.04270961
29	0xbd89f0c6	-0.06735377
30	0xbeac7fba	-0.33691198
31	0x3da3d7d0	0.08000147
32	0x3d6946ff	0.056952473
33	0x3c6b3c21	0.014357598
34	0xbf172d07	-0.5905308
35	0x3d699ef8	0.05703637
36	0x3d876f86	0.06613068
37	0xbe11ce37	-0.14238821
38	0xbedb4721	-0.42827705
39	0x3c4a067b	0.012330647
40	0xbd96c5a6	-0.07361917
41	0xbc37f161	-0.011226983
42	0xbe07edda	-0.13274327
43	0xbfe0cf1d	-1.7563206
44	0x3c50ccad	0.012744111
45	0xbda66536	-0.08124773
46	0xbc4118e0	-0.011785716
47	0x3ceb9333	0.028756713
48	0xbe22b1be	-0.15888116
49	0x3d9f2373	0.07770433
50	0xbefe5c35	-0.49679723
51	0xbba884f0	-0.0051428005
52	0x3d58765a	0.052847244
53	0xbeb25f01	-0.34838107
54	0xbee696e0	-0.45036983
55	0xbeb56d71	-0.3543506
56	0xbf894e91	-1.0727102
57	0xbec835d8	-0.3910358
58	0x3d95dc59	0.073174186
59	0xbe0db389	-0.13838018
60	0x3de01902	0.1094227
61	0xbc164345	-0.009171312
62	0xbf13e35b	-0.5776879
63	0xbf3a1484	-0.72687554
64	0x3d6ba487	0.057529952
65	0xbecd9ff4	-0.40161097
66	0x3da18bd4	0.07887998
67	0x3c9e95bc	0.019358508
68	0xbd03ae8e	-0.03214889
69	0xbe165ce8	-0.14683878
70	0x3d9298e8	0.07158071
71	0xbdd7c247	-0.10535102
72	0xbd667325	-0.056262154
73	0xbeb14aeb	-0.3462747
74	0x3d81b6bc	0.06333682
75	0xbdac0670	-0.08399665
76	0xbd6e9902	-0.05825139
77	0xbdaeef2d	-0.08541713
78	0xbcba1318	-0.022714183
79	0xbe756bde	-0.2396693
80	0xbe146d4b	-0.14494817
81	0x3d9f47eb	0.07777389
82	0xbf8c80ee	-1.0976846
83	0xbfba9d85	-1.4579321
84	0xbee85262	-0.45375353
85	0x3cf3b76f	0.029750554
86	0xbe218ac0	-0.15775585
87	0x3ddcfce9	0.10790426
88	0xbf9fe5ea	-1.2492039
89	0xbdacccf5	-0.0843753
90	0xbd8d913a	-0.069124654
91	0x3e2d762f	0.16939615
92	0xbe8d3a5d	-0.2758359
93	0x3c85e17f	0.016342876
94	0xbdae1d70	-0.085017085
95	0xbf8fbe8a	-1.1230023
96	0xbe075230	-0.13214946
97	0x3db1e48e	0.086861715
98	0xbe04ae2f	-0.12957071
99	0xbd1c3c61	-0.03814352
100	0xbf3c37b5	-0.735225
101	0xbd21eced	-0.03953259
102	0x3cc9d6a4	0.024638481
103	0xbbf2a480	-0.007404864
104	0xbd7ac1ca	-0.061219968
105	0xbe8f451c	-0.27982414
106	0xbd07bde6	-0.033140086
107	0xbcd419d7	-0.025891228
108	0xbdbacbb9	-0.09120888
109	0xbf4f8449	-0.81061226
110	0xbe74a1a7	-0.2388979
111	0xbe696711	-0.22793223
112	0xbf352908	-0.70765734
113	0xbe871211	-0.2638097
114	0xbd06d49f	-0.032917615
115	0xbca9186a	-0.020641524
116	0x3c5d5492	0.013508933
117	0xbf09c7af	-0.5382032
118	0xbf09b661	-0.53793913
119	0x3cc01c42	0.023450974
120	0xbf12fa48	-0.5741315
121	0xbf81e7dd	-1.0148884
122	0x3d8b61fa	0.06805797
123	0x3ca14dec	0.019690476
124	0x3d3a5928	0.045495182
125	0xbe3bd732	-0.18343809
126	0xbcfeff4d	-0.031127596
127	0xba89f7ff	-0.0010526179
128	0x3b0eed8a	0.0021809065
129	0x3cd65115	0.02616171
130	0xbd4d874c	-0.050177857
131	0x3da76ede	0.08175443
132	0xbd388cf4	-0.0450563
133	0x3cbc97e7	0.023021651
134	0x3c76b716	0.0150582995
135	0x3d99f7d4	0.075179726
136	0xbcf7455e	-0.030184444
137	0xbd6de37b	-0.05807827
138	0xbd615fe0	-0.055023074
139	0xbcbbf6af	-0.022944776
140	0xbce33deb	-0.027739486
141	0x3d0e61b9	0.034761164
142	0xbd13e53f	-0.036107298
143	0x3cb929ec	0.022602998
144	0x3d703ed4	0.058653668
145	0x3d1943d9	0.03741822
146	0xbd03e0b1	-0.032196704
147	0xbd94ff49	-0.07275254
148	0xbc740800	-0.0148944855
149	0xbb99f3db	-0.0046982593
150	0xbd5e0798	-0.05420646
151	0x3d892db2	0.06698169
152	0x3d7ccf24	0.061720982
153	0xbd3c4364	-0.045962706
154	0xbd85c9b5	-0.06532613
155	0x3cfc8457	0.030824823
156	0x3c349fb3	0.011024403
157	0xbd6bcbd9	-0.05756745
158	0xbd034bf5	-0.03205486
159	0xbd454bf6	-0.048168145
160	0x3c9697d1	0.018382939
161	0x3c0c6933	0.008570003
162	0xbda00729	-0.07813866
163	0x3d8d63e4	0.06903818
164	0x3c5ce14c	0.013481449
165	0xbd5a3000	-0.053268433
166	0x39fc3317	0.0004810325
167	0xbd9b31be	-0.07577847
168	0xbd0df7dd	-0.03466021
169	0xbd9bba69	-0.07603914
170	0x3c2205e1	0.009889097
171	0xbc67933b	-0.014134224
172	0x3da79a95	0.08183781
173	0xbdaf5f1c	-0.085630625
174	0x3c228c87	0.0099212
175	0xbbbc3cf9	-0.005744573
176	0x3bd12fc2	0.006383867
177	0xbd6cbaeb	-0.057795446
178	0xbd7d4502	-0.06183339
179	0xbc9aafa3	-0.018882578
180	0xbcd1b31b	-0.0255981
181	0xbd710e9c	-0.058851823
182	0xbd5e9c0b	-0.054348033
183	0x3d3b5bcb	0.045741837
184	0xbcc54a4b	-0.024083277
185	0xbce0bc49	-0.027433531
186	0xbca98ce3	-0.020697063
187	0xbdb29108	-0.08719069
188	0x3dadc645	0.084850825
189	0xbd28bbba	-0.041194655
190	0xbd8403d8	-0.06446046
191	0xbce5cdaa	-0.02805217
192	0xbd8a394e	-0.06749211
193	0xbd769969	-0.060204897
194	0x3b4ebfd3	0.0031547442
195	0x3cf1c74d	0.02951398
196	0x3d3e1664	0.046408072
197	0xbbbca40a	-0.0057568597
198	0xbd1c455a	-0.038152076
199	0x3d04ce1a	0.032423116
200	0x3d3be80e	0.0458756
201	0x3d2f93f7	0.04286572
202	0x3d8034f8	0.06260103
203	0xbd197fb9	-0.03747532
204	0xbc6c3513	-0.014416951
205	0x3d38ba4c	0.04509954
206	0x3d3e3203	0.046434414
207	0xbd9b8618	-0.07593936
208	0xbda1cf9a	-0.07900925
209	0xbcd726b1	-0.026263567
210	0xbbf380c4	-0.0074311215
211	0xbd907b88	-0.07054812
212	0x3b8e1894	0.004336426
213	0xbbd4c0a2	-0.00649269
214	0xbcc0c342	-0.023530606
215	0xbd9457ee	-0.07243334
216	0xbd3d7181	-0.046250824
217	0xbaa975b5	-0.0012928756
218	0xbcbbb41e	-0.022913035
219	0x3d275f1d	0.04086219
220	0xbd23d084	-0.039993778
221	0xbd0e1baf	-0.03469437
222	0x3d7f1b41	0.06228185
223	0x3d83df6e	0.064391
224	0xbd07cdf7	-0.033155408
225	0x3d4aea1e	0.049539678
226	0x3b7ba98f	0.0038400625
227	0xbc8632c8	-0.016381636
228	0xbb31765f	-0.0027078611
229	0xbcc54c80	-0.02408433
230	0xbcb371e0	-0.021904886
231	0x3daa66d6	0.08320396
232	0xbd94fe1e	-0.072750315
233	0x3d88f352	0.06687035
234	0x3d2b152a	0.04176823
235	0xbd4ae142	-0.04953123
236	0xbda2fd84	-0.079585105
237	0xbc94c624	-0.018160887
238	0xbd61cd43	-0.055127393
239	0x3d56a78b	0.052405875
240	0xbd65a9df	-0.056070205
241	0xbd1bc204	-0.038026825
242	0xbd3c248e	-0.0459333
243	0x3d67f1b9	0.05662701
244	0xbd223c21	-0.039608125
245	0xbd9b1dd4	-0.07574049
246	0xbc8d4af1	-0.017247649
247	0x3ccfd513	0.025370156
248	0x3bced986	0.006312552
249	0xbd96d550	-0.07364905
250	0xbdb1a9c7	-0.086749606
251	0xbbd58a73	-0.0065167486
252	0x3d949343	0.072546504
253	0xbd14411e	-0.036194913
254	0xbcea3998	-0.028591916
255	0xbcb6c51f	-0.022310792

fc2.bias f4 [64]
0	0xbdb079ad	-0.08616958
1	0xbdf3d819	-0.11906452
2	0xbd43e03b	-0.047821265
3	0xbe5f986e	-0.21835491
4	0xbd6947b0	-0.056953132
5	0x3d9f7b79	0.077872224
6	0xbd8cfe32	-0.068844214
7	0xbd8dbba7	-0.069205575
8	0xbda61f17	-0.08111399
9	0xbe012d01	-0.12614824
10	0x3dac0fca	0.08401449
11	0xbdad6814	-0.08467117
12	0x3d627406	0.05528643
13	0xbbbac191	-0.0056993444
14	0xbe022781	-0.12710382
15	0x3d88ccac	0.06679663
16	0xbda97faf	-0.08276307
17	0xbe1cfa35	-0.15329821
18	0x3da94a9e	0.08266185
19	0xbd4cde51	-0.050016705
20	0x3dea5178	0.1144132
21	0xbe17947b	-0.14802735
22	0x3d9d24ea	0.076730564
23	0xbd8b6f13	-0.06808295
24	0xbd652c58	-0.055950493
25	0xbd4eb453	-0.05046494
26	0xbdc22eb7	-0.094815664
27	0x3deaea6d	0.114704944
28	0x3dc45716	0.09586923
29	0xbd515ce9	-0.051113997
30	0x3d960f5c	0.07327148
31	0xbd861d0b	-0.06548508
32	0xbd279f32	-0.040923305
33	0x3d8b1088	0.067902625
34	0xbdbeb0f5	-0.093110956
35	0xbc97ef4f	-0.018546728
36	0xbdfe6a2f	-0.12422597
37	0x3d9f62b7	0.077825
38	0x3dd5bf67	0.10436898
39	0x3d8478bf	0.06468343
40	0xbd2cc9b7	-0.042184558
41	0xbe0bc40c	-0.13649005
42	0xbe617fc3	-0.22021393
43	0x3db28fbb	0.08718821
44	0xbde76c8e	-0.11300002
45	0x3dc4820c	0.09595117
46	0xbe398a5a	-0.18119183
47	0xbdc612a8	-0.09671527
48	0xbd932e4b	-0.07186564
49	0xbe149cd1	-0.14512946
50	0xbdd0f452	-0.102028504
51	0xbe137cbe	-0.14403054
52	0xbde1f19e	-0.11032413
53	0xbe4cc612	-0.19997433
54	0x3db07e3d	0.08617828
55	0xbe1cf219	-0.15326728
56	0xbd3e28cc	-0.046425626
57	0x3db01c04	0.085990936
58	0xbcd8f115	-0.026482144
59	0xbd9d63cb	-0.076850496
60	0xbe248563	-0.16066508
61	0xbcd11484	-0.025522478
62	0x3de23af1	0.110463984
63	0xbdf7f354	-0.12106958

fc3.weight f4 [8, 64]
0	0x3dfe5f69	0.12420542
1	0x3da6d2b8	0.0814566
2	0x3df4f8bd	0.119615056
3	0x3d91a65f	0.07111811
4	0x3dbe6efb	0.092985116
5	0x3e53a71f	0.2066922
6	0x3d874d81	0.066065796
7	0x3e22c400	0.1589508
8	0x3dff57b5	0.12467901
9	0x3e1031bb	0.1408147
10	0x3e0f7140	0.14008045
11	0x3e4bee56	0.19915137
12	0x3e822eb1	0.25426248
13	0x3f2858c3	0.6576044
14	0x3cb8ea0a	0.022572536
15	0x3f1d9a44	0.61563516
16	0x3e730cdf	0.23735379
17	0xbdc4d613	-0.09611144
18	0x3e417026	0.18890437
19	0x3dd3454f	0.10315954
20	0x3d3233ed	0.04350655
21	0x3e742790	0.23843217
22	0xbce61261	-0.028084936
23	0xbd4ab1bd	-0.04948591
24	0x3cd6762f	0.026179401
25	0x3e2a6a52	0.1664212
26	0x3e041ad9	0.12900867
27	0x3e338fe7	0.17535363
28	0x3dec43af	0.11536347
29	0x3d058379	0.032596085
30	0x3f146e5d	0.579809
31	0x3bafdece	0.0053671366
32	0x3dde2469	0.108467884
33	0x3e531711	0.20614268
34	0x3ca8c668	0.02060242
35	0x3cc33eda	0.02383368
36	0x3ddf338a	0.10898502
37	0x3f0c028c	0.54691386
38	0xbd289d64	-0.041165724
39	0x3ef781cb	0.48341212
40	0x3e2bf5d2	0.16792992
41	0x3db9585a	0.09050055
42	0x3a66205a	0.00087786245
43	0x3e095043	0.13409524
44	0x3decfd7b	0.11571785
45	0x3e242030	0.16027904
46	0xbcfa162c	-0.03052815
47	0x3dd66ac8	0.10469586
48	0xbb6f355d	-0.0036500313
49	0x3ca3e715	0.02000765
50	0x3e62b40c	0.22138995
51	0x3e8c0897	0.27350304
52	0x3e7701db	0.24121802
53	0x3e7ff8c9	0.24997248
54	0x3e4f7926	0.20261058
55	0xbcf8d3d6	-0.030374449
56	0x3df6f34d	0.12058125
57	0x3e1abffe	0.15112302
58	0xbd3038da	-0.043022968
59	0x3b6f88cb	0.003655004
60	0x3de192ca	0.11014326
61	0x3da25f35	0.079283156
62	0x3e32e93c	0.17471784
63	0xbe86940e	-0.26284832
64	0x3e33c901	0.17557146
65	0xbdb2a0ce	-0.08722077
66	0x3e1fd28b	0.1560766
67	0x3d661357	0.056170788
68	0x3e42dc3b	0.19029324
69	0x3e62ef96	0.22161707
70	0x3dd208b4	0.10255566
71	0x3e341c35	0.17588885
72	0x3e03c0e5	0.12866552
73	0xbd64451c	-0.05572997
74	0x3e172722	0.14761022
75	0x3e9c862c	0.30571115
76	0x3e7aa8ea	0.24478498
77	0x3e9a84a5	0.30179325
78	0xbdb81f20	-0.089903116
79	0x3f0ef422	0.5584127
80	0x3e9041e2	0.28175265
81	0x3df5beef	0.11999308
82	0x3e3a495c	0.18192047
83	0x3e26f876	0.16305718
84	0x3e16692a	0.14688554
85	0x3ea2d668	0.31804204
86	0x3e03f827	0.12887631
87	0x3cf4949b	0.029856017
88	0xbcd5d1ac	-0.026100956
89	0x3e3fe4d1	0.1873963
90	0x3e21593d	0.15756698
91	0x3dde5aa9	0.10857136
92	0x3e175c04	0.14781195
93	0x3e053cf0	0.13011527
94	0x3efc947a	0.4933203
95	0x3d90c07f	0.07067966
96	0x3e308574	0.17238408
97	0x3e4533ee	0.19258091
98	0x3e0f0263	0.13965754
99	0x3e39cc80	0.18144417
100	0x3d50193e	0.050805323
101	0x3ef9249c	0.48660743
102	0x3db4bda3	0.08825233
103	0x3f06f261	0.5271359
104	0x3e8c81bb	0.27442726
105	0x3df3c0ab	0.11901983
106	0x3d34f27a	0.044176556
107	0x3e4b0baf	0.19828676
108	0x3dbde276	0.092717096
109	0x3e204ff2	0.15655497
110	0x3dd5abfe	0.104331955
111	0x3d22eb6c	0.039775297
112	0xbd0370ed	-0.032090116
113	0x3b9356bb	0.004496423
114	0x3e98a584	0.29813778
115	0x3ea27017	0.31726143
116	0x3df916fd	0.12162588
117	0x3ea8b90b	0.32953677
118	0x3e155fbd	0.14587303
119	0x3d8bd5de	0.06827901
120	0x3e05a18f	0.13049911
121	0x3e392af1	0.18082787
122	0xbd490ed8	-0.04908642
123	0x3daf86cc	0.08570632
124	0x3d038ee4	0.032118693
125	0x3db9237a	0.0903997
126	0x3dffda7c	0.124928445
127	0xbb6dcbc0	-0.0036284775
128	0x3e05ea22	0.13077596
129	0x3cc08e70	0.02350542
130	0x3e0905c6	0.13381109
131	0xbcfccff6	-0.030860882
132	0x3dca24fb	0.09870335
133	0x3e72501d	0.23663373
134	0x3e43c799	0.19119109
135	0x3de6f218	0.112766445
136	0x3e03a3f0	0.12855506
137	0xbd25201e	-0.040313832
138	0x3e59eba6	0.21281299
139	0x3ebcca59	0.3687313
140	0x3e929e10	0.28636217
141	0xbde40bfe	-0.111351
142	0x3d4eb4f4	0.05046554
143	0x3ee39192	0.44447
144	0x3eaa7128	0.33289456
145	0xbd57c2d2	-0.05267603
146	0x3e110cdd	0.14165063
147	0x3da0d52c	0.07853159
148	0x3e84e56a	0.2595628
149	0x3ec02f01	0.3753586
150	0x3f1396a7	0.5765175
151	0xbda65535	-0.08121721
152	0x3c6c8f97	0.014438531
153	0x3de1b99c	0.1102173
154	0x3db3be64	0.087765485
155	0x3e4365bd	0.19081779
156	0x3e0e0489	0.13868918
157	0x3e3d9155	0.18512471
158	0x3f1005a3	0.562586
159	0xbd4f7463	-0.050648104
160	0x3d8417a4	0.064498216
161	0x3e24e335	0.16102298
162	0xbcabc070	-0.020965785
163	0x3e3ca74e	0.18423197
164	0x3de7f07f	0.11325168
165	0x3ec72497	0.38895103
166	0x3e8a8c90	0.27060366
167	0x3f05e366	0.5230011
168	0x3eb3023c	0.34962642
169	0x3df1f483	0.11814215
170	0x3e17a741	0.14809896
171	0x3e29f320	0.16596651
172	0x3db98699	0.090588756
173	0x3e135363	0.14387278
174	0x3d22204e	0.03958159
175	0xbdcf9282	-0.10135366
176	0x3df54e95	0.11977879
177	0x3d10eaba	0.035380103
178	0x3e72563e	0.23665711
179	0x3ebe440e	0.37161297
180	0xbc2415f2	-0.010014998
181	0x3ec9b257	0.39393875
182	0x3e198c92	0.1499503
183	0xbd838632	-0.0642208
184	0x3dc91ed6	0.098203346
185	0x3e9ccfdc	0.30627334
186	0xbd8ebc05	-0.06969456
187	0x3dc956cb	0.098310076
188	0xbd159161	-0.036515597
189	0x3e081e56	0.13292822
190	0x3df25565	0.11832694
191	0x3dd86199	0.1056549
192	0x3df7a63c	0.120922536
193	0x3d9cba45	0.076527156
194	0x3dc2d129	0.095125504
195	0x3d218044	0.039428964
196	0x3d2cdeb3	0.04220457
197	0x3e2ac8af	0.16678117
198	0x3d9eecc5	0.07760004
199	0x3e13a75c	0.14419311
200	0x3daefaa2	0.08543898
201	0x3cc337d3	0.02383033
202	0x3e453f7d	0.192625
203	0x3efdca87	0.4956858
204	0x3e529cfb	0.20567696
205	0xbf86147c	-1.0475001
206	0xbd654c10	-0.055980742
207	0x3f3ae5e1	0.7300702
208	0x3e8fbd69	0.28074196
209	0xbd8441b7	-0.064578466
210	0x3e3bc945	0.18338497
211	0x3e0a3ccd	0.13499756
212	0x3ef678fb	0.48139176
213	0x3eb1817d	0.34669104
214	0x3f536b9c	0.82586074
215	0xbdaf65b6	-0.08564322
216	0xbd56e3ce	-0.052463345
217	0x3df773cf	0.120826356
218	0x3db3574c	0.08756885
219	0x3e189da5	0.14903887
220	0x3e0a3e33	0.1350029
221	0x3db17266	0.08664398
222	0x3f30f683	0.6912615
223	0xbcc2d901	-0.023785116
224	0x3e240399	0.16016997
225	0x3e2835e6	0.1642681
226	0xbcb1639e	-0.021653946
227	0x3e0de1c0	0.13855648
228	0x3db52d69	0.08846552
229	0x3f2e4907	0.6808018
230	0x3efb2e60	0.4905882
231	0x3f74488e	0.9542321
232	0x3ec93632	0.3929916
233	0xbdb7ccad	-0.08974586
234	0xbc6b2a95	-0.014353414
235	0x3e1e373e	0.1545076
236	0x3d5e3905	0.054253597
237	0x3e26a665	0.16274412
238	0xbaf898de	-0.0018966456
239	0xbc992d80	-0.018698454
240	0x3c5b9d22	0.013404163
241	0xbd86b22c	-0.06576952
242	0x3e9f916f	0.31165645
243	0x3ea9c5e6	0.33158797
244	0xbdd1f182	-0.10251142
245	0x3ee714b7	0.45132992
246	0x3e105267	0.14093934
247	0xbd56c7d3	-0.05243666
248	0x3db38be8	0.087669194
249	0x3f1f9853	0.62341803
250	0xbd94fa51	-0.072743066
251	0x3d4d4967	0.05011883
252	0x3d668d43	0.05628706
253	0x3d58a6ee	0.05289357
254	0x3de7d9f4	0.11320868
255	0x3d2c2124	0.042023793

fc3.bias f4 [8]
0	0x401b950e	2.4309726
1	0x401ba93a	2.4322038
2	0x401d0dba	2.4539628
3	0x401c7253	2.4444778
4	0x401d0b35	2.453809
5	0x401cb3f7	2.4484842
6	0x401bcd90	2.4344215
7	0x401cee18	2.452032
